model/2018-10-12_21-43-28_model_epoch1_step2000.pth (torch_old, 202583 bytes, 20 tensors)

i2h.weight f4 [40, 4]
-0.62432903 -0.13804647 0.07819337 -0.28769222 -0.038590234 -0.11352836 -0.46391776 -0.26828316
-0.1918649 0.3938689 0.3709672 0.278835 0.38563907 -0.00807608 0.5758374 0.36872804
0.2659777 -0.11577878 0.33211184 -0.1900169 -0.504633 -0.19006856 0.4024052 0.5308239
-0.19070898 -0.33808386 0.44057515 -0.07850863 0.25103647 -0.25404525 -0.606543 0.21313801
-0.07362606 -0.008834048 0.66691107 -0.5336726 -0.60362315 0.28546137 0.46084842 0.39876
0.47804525 -0.30776638 0.35402867 -0.30416825 0.14737059 0.2890954 0.08094849 -0.22225659
-0.2996115 -0.38627568 0.09076716 0.4102692 -0.41419518 -0.187576 -0.51166046 0.7394068
-0.39871034 0.41117123 0.67843634 0.038546205 -0.0029067688 -0.031391434 -0.075563066 -0.018297778
-0.53661174 0.35952893 -0.25183195 0.19853124 0.43467683 0.24077454 -0.38824317 -0.1212532
-0.32713184 0.002314308 -0.3291108 0.04939066 -0.073518455 -0.024583757 -0.014354601 -0.098840535
0.13888428 -0.07022836 -0.20854983 0.047930945 0.25013804 0.13486703 -0.14932036 0.081598245
-0.11244515 -0.14892735 0.1582014 -0.16039692 -0.24403627 0.32895488 -0.14837639 0.40971065
0.04076941 -0.41936836 0.7695392 0.36647812 -0.60733664 -0.37668735 0.6132432 -0.5657276
0.51471394 -0.07632438 -0.714726 0.3183284 -0.082407 0.4770792 0.39369974 0.505993
0.15020768 -0.124593936 0.5658356 -0.66792184 0.104443274 -0.448356 -0.4158736 -0.49080926
0.40812203 -0.3509545 0.28656733 0.5643453 -0.44622457 -0.33572656 -0.46927604 0.37014803
0.21085897 -0.11084012 -0.63503546 -0.36253518 -0.027012302 -0.1691982 0.09538663 -0.20050484
-0.5409536 -0.16007657 0.33262753 0.030892732 0.49390128 -0.3239812 -0.60712737 -0.14707465
0.327876 -0.12577483 0.4375952 -0.19395293 -0.43956414 -0.15197678 0.045278944 0.56552
-0.19826384 -0.11653873 -0.53159565 0.41217375 -0.54979926 0.03657821 -0.1034677 -0.324771
00000000: 07d4 1fbf 0e5c 0dbe d823 a03d 654c 93be
00000010: cb10 1ebd 8f81 e8bd a186 edbe 695c 89be
00000020: 3b78 44be 2fa9 c93e 6aef bd3e 76c3 8e3e
00000030: 7c72 c53e 8951 04bc 146a 133f ecc9 bc3e
00000040: 3b2e 883e 6d1d edbd 900a aa3e ca93 42be
00000050: a12f 01bf 55a1 42be 0e08 ce3e 13e4 073f
00000060: 3749 43be 5419 adbe 1193 e13e 22c9 a0bd
00000070: da87 803e 3812 82be 6746 1bbf da40 5a3e
00000080: 42c9 96bd afbc 10bc afba 2a3f c49e 08bf
00000090: 0c87 1abf fe27 923e 53f4 eb3e 452a cc3e
000000a0: 59c2 f43e 8e93 9dbe 3f43 b53e f1bb 9bbe
000000b0: 51e8 163e 5004 943e 52c8 a53d 3b97 63be
000000c0: ae66 99be edc5 c5be 22e4 b93d ce0e d23e
000000d0: 6411 d4be ec13 40be 2efc 02bf c449 3d3f
000000e0: c323 ccbe 0985 d23e 01ae 2d3f a0e2 1d3d
000000f0: 7d7f 3ebb 4e94 00bd cfc0 9abd 39e5 95bc
00000100: 635f 09bf 2d14 b83e 1ef0 80be c64b 4b3e
00000110: f68d de3e 9a8d 763e cfc7 c6be 9953 f8bd
00000120: d37d a7be a5ab 173b 3681 a8be dc4d 4a3d
00000130: d890 96bd e063 c9bc 8f2f 6bbc e86c cabd
00000140: ae37 0e3e e3d3 8fbd 168e 55be 3d53 443d
00000150: 1812 803e 951a 0a3e 70e7 18be fb1c a73d
00000160: a549 e6bd 6980 18be 8cff 213e 173f 24be
00000170: a5e4 79be c66c a83e fbef 17be 98c5 d13e
00000180: d3fd 263d 73b7 d6be 8500 453f 05a3 bb3e
00000190: 6a7a 1bbf 2add c0be 82fd 1c3f 86d3 10bf
000001a0: 4bc4 033f f54f 9cbd 48f8 36bf f1fb a23e
000001b0: 00c5 a8bd ba43 f43e 0393 c93e c288 013f
000001c0: 0bd0 193e 1b2b ffbd 9ada 103f edfc 2abf
000001d0: 5be6 d53d eb8e e5be 62ed d4be 5a4b fbbe
000001e0: 5ff5 d03e 4fb0 b3be f4b8 923e ef78 103f
000001f0: 8c77 e4be 5ae4 abbe f344 f0be 0b84 bd3e
00000200: 6aeb 573e 2500 e3bd af91 22bf 369e b9be
00000210: e748 ddbc 4b42 2dbe 115a c33d 2451 4dbe
00000220: ef7b 0abf 1deb 23be 284e aa3e c112 fd3c
00000230: a1e0 fc3e dde0 a5be b36c 1bbf bd9a 16be
00000240: 5ddf a73e 1ecb 00be 7a0c e03e 999b 46be
00000250: 8d0e e1be cd9f 1bbe 6a76 393d ebc5 103f
00000260: ad05 4bbe dcab eebd a716 08bf 7008 d33e
00000270: a5bf 0cbf 08d3 153d e0e6 d3bd 6248 a6be

i2h.bias f4 [40]
0.23478298 0.25492242 -0.42493823 -0.19704485 -0.19517091 -0.1924844 0.07652649 0.3299562
-0.09507399 -0.3770247 -0.12481932 -0.2137079 0.06907373 -0.029442016 0.0058687483 0.07060915
0.02324918 -0.057487622 0.23706503 0.10954118 -0.06443942 0.19005352 -0.079281576 -0.3460505
-0.49426448 0.14247945 0.14618206 -0.44419378 0.20316392 0.0030281781 -0.51101905 0.31587496
0.28861475 0.12884638 0.3103436 0.21179995 -0.21471149 -0.25006023 0.28924447 0.56696695
00000000: f36a 703e 3185 823e 8191 d9be 20c6 49be
00000010: e2da 47be a11a 45be ecb9 9c3d 05f0 a83e
00000020: 27b6 c2bd 6209 c1be 46a1 ffbd 3ed6 5abe
00000030: 8776 8d3d 6230 f1bc a14e c03b 889b 903d
00000040: 1075 be3c 2478 6bbd 2dc1 723e 2057 e03d
00000050: d1f8 83bd 649d 423e 615e a2bd 882d b1be
00000060: 3c10 fdbe 22e6 113e c0b0 153e 5e6d e3be
00000070: 340a 503e 6674 463b 25d2 02bf 5dba a13e
00000080: 50c5 933e 4ef0 033e 5be5 9e3e 16e2 583e
00000090: 54dd 5bbe e507 80be da17 943e bf24 113f

gru.weight_ih_l0 f4 [120, 40]
0.53917086 0.43045774 -0.11889371 -0.3751484 -0.19878513 0.19616802 0.044679288 -0.3264728
-0.20477194 0.4924202 -0.45044032 0.22862442 0.06838275 0.19535448 -0.1499164 0.17503625
0.27629364 -0.36700273 0.50546646 0.3973413 0.21639253 -0.24385236 0.12081502 0.0764439
-0.110275485 0.19498964 -0.3582207 -0.23689368 -0.3588938 0.3038033 -0.470104 0.37762848
0.22009623 0.045456022 0.119959466 -0.3025612 -0.33237582 0.21487534 0.13769782 0.3310585
-0.4991674 -0.13756405 -0.022062201 0.060615096 0.1706584 0.22219042 0.22496597 0.13293727
-0.29067546 -0.08338687 0.074171916 -0.33092067 0.16893937 0.15906225 -0.08948892 0.0073702633
-0.33504727 -0.20433775 -0.25889874 0.08046436 -0.026986262 0.026264012 -0.13060355 -0.20994203
0.07617453 -0.42234883 0.2449164 0.17164409 -0.23625343 -0.09221134 0.45682067 0.06679242
-0.12173307 -0.01055358 0.033001382 -0.056789793 0.3440266 -0.042205784 0.17071368 -0.30527988
0.10868739 -0.065815896 -0.27705932 -0.07295078 -0.05666418 0.041226048 0.06593898 0.24432321
-0.27052575 -0.2729199 0.09730388 0.0032910493 0.042113528 0.18350393 -0.18793479 0.11348552
0.08958676 -0.05964223 0.18797049 -0.035433963 0.16435431 -0.17038481 -0.10301894 -0.074070506
-0.13109215 0.1265501 0.10008764 -0.04879703 -0.22997826 0.21496199 0.24569994 0.32215303
0.113587245 0.035350498 -0.037735227 0.040651064 -0.088298485 0.26294568 0.4630995 -0.14595652
0.15753686 -0.1020291 -0.01863894 -0.10854367 -0.039763257 0.31940997 0.40191007 -0.009646761
-0.3267623 0.077221856 -0.040314883 -0.100616366 0.16114649 -0.063528575 0.22370696 0.002537378
0.046891 -0.44371393 0.05357985 0.09994634 -0.1892334 -0.12560269 0.022315046 -0.15971123
0.20831192 0.072778404 -0.1890606 0.09038317 -0.057446044 -0.20032218 -0.034791518 -0.023314415
-0.14845589 -0.07651271 0.30748537 -0.23631617 -0.23862809 0.22055924 0.461908 0.21473826
0.08970719 0.18397392 -0.064946786 -0.25243685 -0.24389346 -0.25058788 0.012036622 -0.17855722
0.22307813 0.035393868 -0.38770047 -0.053843495 -0.02463971 -6.609246e-05 -0.15817523 -0.08651547
0.31767315 0.1563843 0.20133355 0.10670705 0.14105421 -0.05016602 -0.0657178 0.033992987
-0.1917948 0.03319325 -0.18849784 -0.05517251 -0.054054026 0.21420474 -0.30156472 0.18799879
0.14870648 0.096633665 -0.051377803 0.15180886 -0.32539326 0.029764062 0.014872661 0.30031738
-0.078596525 -0.13492809 0.38373375 -0.015956681 0.0536038 -0.17279911 0.031963646 -0.121829204
0.1965527 -0.038876362 -0.08179339 0.027244966 -0.28881583 -0.23524289 0.38344786 -0.07786632
-0.009368012 -0.06577535 -0.25242868 0.015441283 -0.009334041 0.09299515 -0.059902664 0.11884465
-0.2248599 0.011519763 -0.0523527 0.31642935 0.4018208 -0.17160603 -0.2311196 -0.18388893
0.01479799 -0.22236173 -0.01253113 -0.4365956 0.294285 -0.25048187 -0.49199286 -0.04332187
0.42084095 0.24936916 -0.057881776 -0.24824585 -0.41799322 0.3893377 0.10543219 -0.30809733
0.029271979 0.14803897 -0.3545446 0.017033154 0.33988312 0.1563137 0.21680023 -0.0575825
00000000: 1a07 0a3f f564 dc3e 8c7e f3bd 7313 c0be
00000010: 548e 4bbe 45e0 483e a101 373d 7127 a7be
00000020: bcaf 51be 801e fc3e 1da0 e6be 851c 6a3e
00000030: 410c 8c3d 010b 483e af83 19be b43c 333e
00000040: 5c76 8d3e c8e7 bbbe 4066 013f 5270 cb3e
00000050: 0196 5d3e 6fb4 79be dd6d f73d 9f8e 9c3d
00000060: 1dd8 e1bd 5dab 473e b468 b7be 4294 72be
00000070: eec0 b7be 1b8c 9b3e 79b1 f0be 8558 c13e
00000080: e860 613e 1830 3a3d 4fad f53d 4de9 9abe
00000090: 2a2d aabe 4808 5c3e a800 0d3e 8080 a93e
000000a0: df92 ffbe 97dd 0cbe cabb b4bc 8947 783d
000000b0: 13c1 2e3e e385 633e 7b5d 663e b520 083e
000000c0: 6ad3 94be bcc6 aabd 72e7 973d 6f6e a9be
000000d0: 71fe 2c3e 37e1 223e f845 b7bd 4082 f13b
000000e0: 518b abbe ea3d 51be 608e 84be 80ca a43d
000000f0: 4b12 ddbc a027 d73c f0bc 05be 0bfb 56be
00000100: 6401 9c3d 1b3e d8be 5dcb 7a3e 78c3 2f3e
00000110: 6bec 71be 4dd9 bcbd 66e4 e93e 77ca 883d
00000120: 304f f9bd ece8 2cbc 752c 073d 6a9c 68bd
00000130: 4124 b03e f9df 2cbd 91cf 2e3e a54d 9cbe
00000140: 7f97 de3d 7cca 86bd b8da 8dbe 3867 95bd
00000150: b318 68bd a5dc 283d 040b 873d dd2f 7a3e
00000160: 5a82 8abe 28bc 8bbe 4247 c73d a5ae 573b
00000170: 3c7f 2c3d 74e8 3b3e fa71 40be 196b e83d
00000180: 4379 b73d 694b 74bd 567b 403e 3423 11bd
00000190: 7f4c 283e 5b79 2ebe 98fb d2bd 47b2 97bd
000001a0: 053d 06be 5996 013e c0fa cc3d 65df 47bd
000001b0: 6c7f 6bbe ff1e 5c3e c498 7b3e 3ef1 a43e
000001c0: 6ea0 e83d afcb 103d 4190 1abd bb81 263d
000001d0: d6d5 b4bd d1a0 863e 611b ed3e a075 15be
000001e0: 5851 213e a2f4 d0bd b1b0 98bc 254c debd
000001f0: ccde 22bd b489 a33e 28c7 cd3e 730d 1ebc
00000200: 634d a7be 7e26 9e3d 3821 25bd f40f cebd
00000210: 9603 253e 451b 82bd 7013 653e 244a 263b
00000220: c710 403d 792e e3be 8b76 5b3d abb0 cc3d
00000230: 67c6 41be fe9d 00be 0bce b63c 578b 23be
00000240: b84f 553e d80c 953d 1a99 41be d01a b93d
00000250: 8b4c 6bbd 4221 4dbe 8d81 0ebd dffd bebc
00000260: d204 18be b2b2 9cbd b96e 9d3e defc 71be
00000270: ec5a 74be 48da 613e 357f ec3e 59e4 5b3e
00000280: 67b8 b73d a963 3c3e d202 85bd 673f 81be
00000290: 35bf 79be 0e4d 80be 4035 453c b4d7 36be
000002a0: 986e 643e 29f9 103d ad80 c6be ff8a 5cbd
000002b0: 38d9 c9bc 1f9b 8ab8 b0f8 21be 062f b1bd
000002c0: 0ea6 a23e 3523 203e 622a 4e3e 3a89 da3d
000002d0: 8470 103e e27a 4dbd 0e97 86bd 3b3c 0b3d
000002e0: db65 44be a5f5 073d 9405 41be 92fc 61bd
000002f0: c167 5dbd 7d58 5b3e b166 9abe c182 403e
00000300: 8346 183e dfe7 c53d 8871 52bd c873 1b3e
00000310: f299 a6be c3d3 f33c 76ac 733c 33c3 993e
00000320: 37f7 a0bd 972a 0abe c078 c43e 96b7 82bc
00000330: a88f 5b3d 40f2 30be 50ec 023d 9781 f9bd
00000340: 1c45 493e d23c 1fbd 4b83 a7bd d630 df3c
00000350: abdf 93be 83e3 70be 4753 c43e 6178 9fbd
00000360: 4a7c 19bc 3ab5 86bd 553e 81be 6ffd 7c3c
00000370: ceed 18bc 3e74 be3d 7f5c 75bd d364 f33d
00000380: ac41 66be 63bd 3c3c c96f 56bd 0703 a23e
00000390: 75bb cd3e 7eb9 2fbe 9eaa 6cbe 614d 3cbe
000003a0: 4573 723c cbb2 63be 5e4f 4dbc 7589 dfbe
000003b0: 86ac 963e 293f 80be 7de6 fbbe 4672 31bd
000003c0: 7778 d73e a15a 7f3e 7115 6dbd 2934 7ebe
000003d0: 3503 d6be 4557 c73e d5ec d73d efbe 9dbe
000003e0: cacb ef3c 8797 173e df86 b5be 1d89 8b3c
000003f0: 2905 ae3e b310 203e e100 5e3e a1db 6bbd

gru.weight_hh_l0 f4 [120, 40]
-0.0811072 -0.16082706 -0.24926421 -0.24415761 0.09392866 0.47333205 0.052950386 0.18894033
-0.046051238 0.044553738 -0.07983367 -0.030626139 0.34876615 0.22524442 0.056667615 0.01217399
0.14028874 -0.018369397 0.3214968 0.2078735 0.13025324 -0.08442353 -0.038428474 -0.37195387
-0.06799117 -0.572554 0.033073884 0.33704948 -0.14395347 -0.21735278 0.13783813 0.28031993
0.008489372 -0.10196293 -0.31282738 0.08019158 0.41268268 -0.17329016 0.03282578 -0.30471277
-0.084018275 -0.534091 0.08530352 -0.018938024 0.24777366 0.0219097 -0.009176328 -0.09900744
-0.28052256 -0.25607443 0.11059009 0.17411241 -0.04589654 -0.40173224 0.2352883 0.16318105
0.17165369 0.2507811 -0.24486068 0.20095238 -0.13922895 -0.30704632 0.15064403 -0.21783821
-0.34501958 -0.13371387 0.14638953 0.10423577 0.32204473 -0.01954221 -0.015960824 0.3137676
0.34301525 0.1403415 -0.010519698 -0.13337144 -0.08102341 0.15727949 -0.2689885 0.016053611
0.5971145 -0.6234093 0.09789953 0.07212931 0.024624849 -0.001147482 -0.27593905 -0.5803006
0.07648649 -0.24787354 0.19513899 -0.08798065 -0.16380627 -0.2134747 -0.10456402 0.042923786
0.0791613 0.34529808 0.48794812 -0.12827994 0.18233564 0.0049970816 -0.34500948 0.069015816
0.11580543 -0.21459751 -0.14302059 0.26485276 0.03603054 -0.08282977 -0.0036973895 0.0638732
0.05909798 0.03696409 -0.30023354 0.13337111 0.29701564 0.0633649 0.3380472 -0.05511794
0.1780965 -0.41567194 0.27244973 -0.3427959 -0.23582669 -0.24879037 -0.144361 0.051127084
0.123201914 -0.068450294 -0.072536245 -0.10344279 0.09830438 0.17425074 -0.046453595 0.023153279
0.3450674 -0.0069256644 0.23642173 0.10664211 0.13283198 0.19818807 -0.23754503 -0.2449329
0.15204838 -0.106059544 -0.010020209 0.29491663 -0.15190323 -0.04021848 0.14471002 0.0977165
0.0631423 -0.010176881 -0.01873175 0.10157715 0.43864408 0.20277628 0.36852413 0.015694365
-0.06700851 -0.27635494 0.6097098 -0.12892519 -0.3115686 -0.30749932 0.12110938 -0.37566614
-0.040271915 -0.2536235 0.08595331 0.17243364 0.096187405 0.099761836 -0.15166382 0.051469777
0.19731072 -0.06895969 0.15150201 0.031348612 0.21291916 0.82024056 -0.23836277 -0.1257811
0.18360558 -0.06531922 0.019510029 0.055888407 -0.12600791 -0.21232346 0.16452515 0.05276153
0.098091766 0.21843635 0.099356234 -0.027396562 0.20263417 0.36060536 -0.25248432 -0.021925218
0.30279872 0.4936081 -0.29094562 0.2393313 0.6452119 0.09392012 -0.18003593 0.25153038
0.40630725 -0.24348734 0.37224728 0.4642507 -0.5827637 0.0011005533 -0.0031713038 0.5132616
-0.06714183 -0.26921394 -0.028980387 -0.70247453 0.03245813 0.0870088 -0.10659582 0.6069773
-0.04278856 -0.29576847 -0.06235038 -0.51100767 0.25906378 -0.5394745 -0.3468821 -0.022092652
0.079894744 -0.07423931 0.008880284 -0.10894722 -0.29220036 0.12799636 -0.17149226 0.5176646
-0.05376739 -0.17155646 0.26788568 -0.17449257 0.087842494 -0.18795082 0.40655908 0.028355237
-0.22441171 -0.1637018 0.27520713 0.24515694 -0.022937525 0.3298334 0.22975841 0.00493713
00000000: 881b a6bd d9af 24be 1e3f 7fbe 7404 7abe
00000010: ab5d c03d 9458 f23e 81e2 583d 9379 413e
00000020: 39a0 3cbd fb7d 363d d67f a3bd abe3 fabc
00000030: 7a91 b23e 79a6 663e 4d1c 683d 6a75 473c
00000040: daa7 0f3e 6b7b 96bc 3b9b a43e cadc 543e
00000050: 1b61 053e 3ee6 acbd 2d67 1dbd bd70 bebe
00000060: f43e 8bbd e692 12bf 7b78 073d c091 ac3e
00000070: 8a68 13be ba91 5ebe 7025 0d3e 1886 8f3e
00000080: 0217 0b3c f1d1 d0bd e92a a0be 7c3b a43d
00000090: 254b d33e fa72 31be 5374 063d 5003 9cbe
000000a0: c611 acbd 30ba 08bf 9db3 ae3d ea23 9bbc
000000b0: 61b8 7d3e f97b b33c 4f58 16bc 6ac4 cabd
000000c0: a7a0 8fbe 301c 83be 0f7d e23d 864a 323e
000000d0: 03fe 3bbd d9af cdbe 6bef 703e ef18 273e
000000e0: fcc5 2f3e 6166 803e c2bc 7abe 76c6 4d3e
000000f0: 0992 0ebe 2d35 9dbe 6e42 1a3e fb10 5fbe
00000100: 68a6 b0be 4aec 08be 23e7 153e 9079 d53d
00000110: 0ce3 a43e fc16 a0bc 46c0 82bc 26a6 a03e
00000120: b29f af3e afb5 0f3e d05a 2cbc 8692 08be
00000130: 9aef a5bd e00d 213e dcb8 89be dd82 833c
00000140: 7fdc 183f c097 1fbf 8c7f c83d 88b8 933d
00000150: 0dba c93c 1b67 96ba e247 8dbe 958e 14bf
00000160: f3a4 9c3d 90d2 7dbe 84d2 473e 332f b4bd
00000170: d5bc 27be 1d99 5abe a925 d6bd dad0 2f3d
00000180: 521f a23d e9ca b03e 56d4 f93e d15b 03be
00000190: 32b6 3a3e 8fbe a33b 15a5 b0be 2a58 8d3d
000001a0: 662b ed3d 73bf 5bbe fd73 12be c89a 873e
000001b0: c294 133d a8a2 a9bd e74f 72bb f4cf 823d
000001c0: b910 723d a867 173d 36b8 99be 7092 083e
000001d0: 6f12 983e 75c5 813d 8614 ad3e 59c3 61bd
000001e0: ee5e 363e f4d2 d4be 887e 8b3e f282 afbe
000001f0: 8d7c 71be e7c2 7ebe 5fd3 13be a26a 513d
00000200: 4951 fc3d ab2f 8cbd e28d 94bd d0d9 d3bd
00000210: cf53 c93d c96e 323e 2046 3ebd f2ab bd3c
00000220: adac b03e aff0 e2bb 8a18 723e 2e67 da3d
00000230: 1b05 083e d0f1 4a3e 013f 73be b1cf 7abe
00000240: 92b2 1b3e bf35 d9bd cd2b 24bc 50ff 963e
00000250: 858c 1bbe 22bc 24bd dd2e 143e 971f c83d
00000260: c050 813d efbc 26bc 5473 99bc ae07 d03d
00000270: f595 e03e 96a4 4f3e 32af bc3e 7891 803c
00000280: c23b 89bd 657e 8dbe f115 1c3f f704 04be
00000290: eb85 9fbe 8d70 9dbe 3208 f83d 5057 c0be
000002a0: 2af4 24bd f0da 81be 4a08 b03d 7292 303e
000002b0: e7fd c43d ef4f cc3d c34d 1bbe f9d1 523d
000002c0: d20b 4a3e bd3a 8dbd 5823 1b3e 6767 003d
000002d0: 7b07 5a3e 49fb 513f 5f15 74be c3cc 00be
000002e0: 1a03 3c3e 15c6 85bd 7fd3 9f3c 3eeb 643d
000002f0: 3808 01be 526b 59be 4879 283e 791c 583d
00000300: 56e4 c83d c7ad 5f3e 487b cb3d c16e e0bc
00000310: 557f 4f3e 44a1 b83e a045 81be 849c b3bc
00000320: 6f08 9b3e 33ba fc3e d3f6 94be 4413 753e
00000330: 9b2c 253f 3159 c03d 575b 38be 97c8 803e
00000340: 8107 d03e bf54 79be 3297 be3e 45b2 ed3e
00000350: 0030 15bf 7140 903a a6d5 4fbb 1d65 033f
00000360: a881 89bd 69d6 89be 4768 edbc 5fd5 33bf
00000370: d1f2 043d ab31 b23d e94e dabd dd62 1b3f
00000380: 0f43 2fbd f76e 97be 1d63 7fbd 66d1 02bf
00000390: 02a4 843e 001b 0abf 889a b1be a6fb b4bc
000003a0: db9f a33d c80a 98bd 9c7e 113c b81f dfbd
000003b0: 499b 95be 7a11 033e ab9b 2fbe ab85 043f
000003c0: 323b 5cbd 7fac 2fbe 5028 893e 2eae 32be
000003d0: c4e6 b33d 2e76 40be 8328 d03e 3e49 e83c
000003e0: 2fcc 65be 72a1 27be f3e7 8c3e 6c0a 7b3e
000003f0: 7ae7 bbbc ecdf a83e ca45 6b3e a6c7 a13b

gru.bias_ih_l0 f4 [120]
-0.29411405 0.041754078 -0.07935795 0.016265286 0.0029239722 0.077385835 0.060282174 -0.07268359
0.14286155 -0.3026406 0.028911551 -0.14007455 0.11965732 0.25490004 -0.20352012 0.11697548
0.15037638 0.0063447035 -0.15654361 -0.031215588 -0.042294193 0.00016809317 -0.067154236 0.20330293
-0.11843368 -0.09738043 0.12141415 -0.21243668 -0.03975041 -0.0048924433 0.1745043 0.18266077
-0.11998278 0.033427674 -0.06631875 -0.03900486 0.07040288 -0.010342831 -0.14650343 0.10921846
-0.3762617 0.25527152 0.0033988107 -0.14375882 0.039178215 -0.29375473 -0.027891602 0.023628403
0.0018862619 0.036358654 0.24803357 0.3177185 0.11343315 -0.31796384 0.12917359 -0.37257397
0.15410335 -0.08336156 0.25386903 -0.0040885215 -0.08212378 -0.43697494 0.49074504 -0.28203115
-0.28051504 -0.10846849 0.11024429 0.10659517 0.33102164 0.10376002 0.14687416 0.023003472
-0.015467039 0.22711253 0.20996289 -0.31894496 -0.44236538 0.17704551 -0.49812695 -0.34561092
0.21381837 -0.001213534 -0.04240449 0.015598448 -0.17933282 0.2510725 -0.09167441 -0.15477188
-0.06981533 -0.032948796 0.08065852 0.14190213 0.042929 -0.027706895 0.056699462 0.22621341
0.060299862 0.15825528 0.12282367 0.040263068 -0.015736474 0.026471611 -0.07488008 -0.008622305
-0.05890875 0.061921008 -0.25520167 0.09596688 0.1185514 -0.0017044308 -0.13797246 -0.11489447
0.22294614 0.018273387 0.014777456 0.010325659 0.16082539 0.07667191 0.1105286 0.1352089
00000000: 1e96 96be 5306 2b3d 6c86 a2bd c73e 853c
00000010: 1da0 3f3b 777c 9e3d 71ea 763d 22db 94bd
00000020: 4c4a 123e b5f3 9abe ebd7 ec3c b46f 0fbe
00000030: e60e f53d 4282 823e 9467 50be d790 ef3d
00000040: 44fc 193e 3be7 cf3b f84c 20be d5b7 ffbc
00000050: ad3c 2dbd 2b42 3039 2988 89bd a52e 503e
00000060: 5b8d f2bd 646f c7bd fba7 f83d 0089 59be
00000070: 53d1 22bd ca50 a0bb 41b1 323e 6d0b 3b3e
00000080: 88b9 f5bd 75eb 083d 20d2 87bd 8fc3 1fbd
00000090: 632f 903d fa74 29bc ff04 16be eead df3d
000000a0: 60a5 c0be f3b2 823e 95be 5e3b 8335 13be
000000b0: 5679 203d 0567 96be ee7c e4bc 5a90 c13c
000000c0: 723c f73a d0ec 143d 83fc 7d3e 00ac a23e
000000d0: a44f e83d 28cc a2be 1546 043e 04c2 bebe
000000e0: 45cd 1d3e 77b9 aabd 1ffb 813e 01f9 85bb
000000f0: 8330 a8bd 2ebb dfbe ef42 fb3e 6366 90be
00000100: ab9f 8fbe ba24 debd c2c7 e13d 924e da3d
00000110: ab7b a93e 2280 d43d 2e66 163e c771 bc3c
00000120: 7769 7dbc 3090 683e 8300 573e c14c a3be
00000130: b77d e2be 6b4b 353e 7f0a ffbe eaf3 b0be
00000140: 34f3 5a3e 720f 9fba 55b0 2dbd a290 7f3c
00000150: 06a3 37be 938c 803e cbbf bbbd 857c 1ebe
00000160: 57fb 8ebd 51f5 06bd 4b30 a53d cb4e 113e
00000170: 52d6 2f3d 92f9 e2bc b23d 683d 7da4 673e
00000180: fdfc 763d ac0d 223e fa8a fb3d e3ea 243d
00000190: c7e9 80bc feda d83c ba5a 99bd 9144 0dbc
000001a0: 4d4a 71bd e2a0 7d3d cba9 82be 498a c43d
000001b0: 14cb f23d 3567 dfba a748 0dbe cb4d ebbd
000001c0: fe4b 643e 12b2 953c 251d 723c f42c 293c
000001d0: 69af 243e 2a06 9d3d d25c e23d 3474 0a3e

gru.bias_hh_l0 f4 [120]
-0.15153378 -0.012214897 -0.1620741 -0.10036668 -0.022687156 0.09571521 0.2447279 -0.10830691
0.23305951 -0.15497184 0.20890096 -0.118735544 0.015000652 0.13367888 0.004163767 0.11403253
0.0940248 -0.2521477 -0.16249005 -0.13591017 0.04666664 0.13098511 -0.12428041 -0.009178256
-0.25345686 -0.045150563 -0.11281892 -0.13869214 -0.06637148 -0.15217952 0.08706143 0.033274498
0.09512174 0.06518183 -0.08275216 0.016049435 -0.19099908 -0.15428221 -0.031586304 -0.12659281
-0.40799597 0.2682872 0.13591307 -0.18270122 0.0692176 -0.07045384 0.2123798 -0.024241814
-0.118931584 0.14653994 0.28090686 0.05038399 -0.08389479 -0.2612682 0.05098469 -0.5710669
0.123816706 0.045606658 0.06189225 0.0017395178 -0.16347377 -0.3649283 0.48202443 -0.25308505
-0.10672678 -0.1715344 0.12766618 -0.03840947 0.20677455 -0.20116527 0.12470559 -0.094246365
0.14300382 0.2737746 0.17373024 -0.29815263 -0.47107968 0.08900014 -0.51842767 -0.28722414
-0.0019266692 -0.054553684 -0.1354287 0.36491624 -0.13267702 -0.011966504 -0.41632637 -0.029117389
-0.0020501553 0.09846315 0.19093128 0.066717416 -0.12270255 0.084161386 0.05978704 0.17777707
0.1526872 -0.05329402 0.014071943 0.08731876 0.078071535 0.11939411 -0.21085455 0.28456756
-0.20072672 -0.071656734 -0.2425981 -0.2659723 0.085751235 0.016082933 -0.050555658 -0.19378577
0.23416 -0.091822 0.1392748 -0.10208628 0.029123763 -0.05998842 0.22501966 -0.12898932
00000000: ac2b 1bbe fe20 48bc c1f6 25be 0c8d cdbd
00000010: 6ada b9bc 5606 c43d f399 7a3e 03d0 ddbd
00000020: 27a7 6e3e f0b0 1ebe 22ea 553e 9f2b f3bd
00000030: 4bc5 753c 1ee3 083e 3670 883b e389 e93d
00000040: 1390 c03d 8119 81be cb63 26be 092c 0bbe
00000050: 8525 3f3d f620 063e ba86 febd 6560 16bc
00000060: 19c5 81be ccef 38bd 9b0d e7bd 5005 0ebe
00000070: c5ed 87bd f3d4 1bbe 434d b23d d74a 083d
00000080: 30cf c23d 0d7e 853d f779 a9bd 1b7a 833c
00000090: 4395 43be 28fc 1dbe a460 01bd 8ca1 01be
000000a0: d9e4 d0be f15c 893e cc2c 0b3e 0716 3bbe
000000b0: f5c1 8d3d 1a4a 90bd 177a 593e c596 c6bc
000000c0: 6792 f3bd 910e 163e 06d3 8f3e 715f 4e3d
000000d0: 08d1 abbd f2c4 85be 53d5 503d 7131 12bf
000000e0: 9d93 fd3d 0cce 3a3d ba82 7d3d 8800 e43a
000000f0: ab65 27be e2d7 babe e8cb f63e 5d94 81be
00000100: 9293 dabd b7a6 2fbe ecba 023e 4053 1dbd
00000110: b5bc 533e 45fe 4dbe a565 ff3d 3d04 c1bd
00000120: 986f 123e 2f2c 8c3e 57e6 313e 76a7 98be
00000130: 5b31 f1be b545 b63d adb7 04bf 0b0f 93be
00000140: 4a88 fcba af73 5fbd d2ad 0abe 4dd6 ba3e
00000150: 7cdc 07be 280f 44bc bb28 d5be 9787 eebc
00000160: e65b 06bb 0ca7 c93d 7d83 433e 24a3 883d
00000170: 794b fbbd ce5c ac3d 41e3 743d 310b 363e
00000180: 095a 1c3e d54a 5abd 028e 663c 2ed4 b23d
00000190: f8e3 9f3d e684 f43d 41ea 57be d7b2 913e
000001a0: 4e8b 4dbe c4c0 92bd a36b 78be 852d 88be
000001b0: 589e af3d 5bc0 833c 7313 4fbd c76f 46be
000001c0: a4c7 6f3e 2c0d bcbd 0e9e 0e3e 9d12 d1bd
000001d0: f594 ee3c 6bb6 75bd 8e6b 663e c715 04be

gru.weight_ih_l1 f4 [120, 40]
-0.14005189 0.011280628 -0.16606492 -0.12780727 -0.095677786 0.11173659 0.044644274 0.38614702
0.15129697 0.622647 0.023230942 0.22742172 0.057513766 -0.0021489281 -0.5081395 -0.052699387
-0.31910816 -0.35470524 -0.14261293 0.008851815 -0.28999865 -0.31491122 -0.16556336 -0.112038724
0.27475345 0.033511553 0.04234806 0.07395906 -0.5257736 0.4542577 0.16253217 0.08582915
0.08795533 0.03256624 -0.590804 0.02871797 -0.21365488 0.19385198 -0.45962387 -0.11405544
0.42043367 0.20585191 -0.22677809 0.2058938 0.17707983 0.1292074 -0.06934293 0.13005748
-0.078663185 -0.0042447085 -0.09302588 0.22309071 -0.27204192 -0.03926263 0.27492216 0.074591376
-0.20338614 -0.096595526 0.0798172 -0.1038352 -0.16049093 0.17014796 -0.032165222 0.6693777
-0.4322543 -0.29182446 0.2153644 0.03286693 0.2172832 0.15451449 -0.21789907 0.070600405
0.18226354 0.050810643 0.14566804 0.26494417 -0.4609792 0.27103385 -0.09834322 0.5827875
-0.48698497 -0.05749513 -0.32625005 0.09542952 0.12832043 0.19250682 0.14683257 -0.022635106
-0.121417575 0.17822252 0.24046984 0.7201662 -0.2009447 0.37613335 1.1091783 0.28763518
0.025278607 -0.053105325 -0.46842927 0.41825077 -0.40465143 0.070083305 -0.8238836 0.15973908
0.21753329 -0.06113631 0.6488908 0.15977341 0.11855607 -0.2919173 -0.18018086 -0.3895055
0.5176737 0.49308404 0.2728178 -0.11787712 0.026844162 0.17499076 -0.07603687 0.102842174
-0.27805597 0.110480845 0.05002204 0.039282493 0.29211637 0.1858976 0.2547294 -0.11967316
-0.22302847 -0.15039457 0.028378578 0.304438 0.013172688 -0.19624053 0.35668606 0.10620718
-0.39023837 0.041237798 -0.24883547 0.5403044 -0.19027546 0.092738405 -0.74985844 -0.22113262
-0.35861018 -0.017485226 0.07115912 -0.028335577 0.079293475 -0.08586674 0.20934491 0.29988754
0.29068506 0.48416921 0.37205064 -0.013423692 -0.1165946 0.28148907 -0.24359483 -0.16843401
-0.14736994 -0.14581022 0.5451474 0.079263605 -0.27323928 -0.13596937 -0.45035136 -0.42391506
0.14859737 -0.024087636 -0.012215564 -0.2989776 0.26366654 -0.34151214 -0.37691513 -0.14550921
-0.26474366 -0.026499154 0.29391193 0.4038785 -0.08744975 -0.09624467 -0.26715901 -0.29986307
-0.108975604 -0.22918992 -0.07988259 -0.44980198 -0.12416415 0.028423343 0.13709947 -0.13650537
-0.0070724348 -0.0068339133 -0.57052636 0.22356246 0.044486042 -0.059046708 -0.18561174 -0.18631074
0.15085053 0.03525849 0.13394253 -0.10185536 0.31879765 -0.027397674 -0.17414187 0.326117
0.32598016 -0.36175263 -0.035900645 -0.43379527 0.17251687 0.08711953 -0.6580284 -0.12754862
-0.3025662 0.10044095 -0.031394117 -0.20283645 -0.16162896 -0.18208462 0.20784353 -0.21482365
-0.20296696 -0.12619507 -0.17828941 -0.0453965 -0.1517931 0.23010737 0.09339301 -0.051639926
-0.47470105 -0.056586612 -0.045477 0.052995928 0.19261648 0.11199862 0.0074248253 -0.2409254
0.34891543 0.35806274 0.062207494 -0.3584937 -0.49559578 0.21648455 0.088669315 -0.059842583
-0.6743784 0.020752493 0.24760357 0.33351442 0.14736424 0.4831798 0.10297209 -0.05872266
00000000: c369 0fbe 62d2 383c ec0c 2abe e9df 02be
00000010: b7f2 c3bd 27d6 e43d eadc 363d 10b5 c53e
00000020: 98ed 1a3e cb65 1f3f d14e be3c 3de1 683e
00000030: 8e93 6b3d 08d5 0cbb 6e15 02bf 50db 57bd
00000040: 2562 a3be ed9b b5be 2009 12be 3407 113c
00000050: b47a 94be 0b3c a1be 7189 29be 8f74 e5bd
00000060: 7cac 8c3e 6943 093d 2975 2d3d d977 973d
00000070: 1999 06bf 7794 e83e d56e 263e 32c7 af3d
00000080: ed21 b43d 2d64 053d ee3e 17bf f341 eb3c
00000090: 58c8 5abe 2281 463e d253 ebbe e695 e9bd
000000a0: 1543 d73e d8ca 523e 8438 68be d3d5 523e
000000b0: 6a54 353e f24e 043e ab03 8ebd ca2d 053e
000000c0: 2a1a a1bd 3217 8bbb 5a84 bebd e471 643e
000000d0: 1449 8bbe dad1 20bd 99c2 8c3e 5dc3 983d
000000e0: 7544 50be e0d3 c5bd 3377 a33d 8da7 d4bd
000000f0: bc57 24be 443b 2e3e aebf 03bd 565c 2b3f
00000100: 7050 ddbe 046a 95be 7c88 5c3e 799f 063d
00000110: 7d7f 5e3e 0c39 1e3e ef20 5fbe f296 903d
00000120: 4ba3 3a3e d21e 503d 012a 153e c3a6 873e
00000130: 7705 ecbe f3c4 8a3e 2c68 c9bd 9031 153f
00000140: 1856 f9be 0380 6bbd 3f0a a7be 8d70 c33d
00000150: 6e66 033e 8220 453e 475b 163e 426d b9bc
00000160: c7a9 f8bd f77f 363e ba3d 763e d05c 383f
00000170: 73c4 4dbe 8d94 c03e 8ef9 8d3f eb44 933e
00000180: 1515 cf3c f884 59bd f6d5 efbe f724 d63e
00000190: 792e cfbe d687 8f3d 09ea 52bf a492 233e
000001a0: 0cc1 5e3e 116a 7abd b51d 263f a49b 233e
000001b0: 86cd f23d 2f76 95be 5581 38be 446d c7be
000001c0: 4386 043f 8375 fc3e c6ae 8b3e 8f69 f1bd
000001d0: 4ae8 db3c c730 333e 38b9 9bbd eb9e d23d
000001e0: 5a5d 8ebe c843 e23d e9e3 4c3d aee6 203d
000001f0: 4790 953e f15b 3e3e e46b 823e 3417 f5bd
00000200: 9361 64be 0901 1abe 317a e83c 4cdf 9b3e
00000210: 42d2 573c 47f3 48be 8e9f b63e 2683 d93d
00000220: 53cd c7be f7e8 283d bace 7ebe 6451 0a3f
00000230: 92d7 42be a2ed bd3d b9f6 3fbf 9770 62be
00000240: c19b b7be 2d3d 8fbc dfbb 913d 0320 e8bc
00000250: 9e64 a23d e7da afbd 835e 563e dc8a 993e
00000260: acd4 943e 07e5 f73e 6c7d be3e 0cef 5bbc
00000270: 26c9 eebd 561f 903e ec70 79be f779 2cbe
00000280: 25e8 16be 464f 15be c88e 0b3f f554 a23d
00000290: 05e6 8bbe 8e3b 0bbe 7494 e6be 650b d9be
000002a0: e929 183e 6f53 c5bc ca23 48bc 9813 99be
000002b0: 4dff 863e aeda aebe 05fb c0be 5e00 15be
000002c0: 7b8c 87be c114 d9bc a07b 963e 2ac9 ce3e
000002d0: db18 b3bd ed1b c5bd 11c9 88be a787 99be
000002e0: 9a2e dfbd c3b0 6abe 7c99 a3bd 724c e6be
000002f0: c649 febd 12d8 e83c ce63 0c3e 10c8 0bbe
00000300: e2bf e7bb 05ef dfbb 040e 12bf 8fed 643e
00000310: ff36 363d f6da 71bd 0111 3ebe 3ec8 3ebe
00000320: 9078 1a3e 356b 103d 3b28 093e 8b99 d0bd
00000330: 7239 a33e 1671 e0bc 3f52 32be cff8 a63e
00000340: dfe6 a63e a437 b9be 8e0c 13bd 6a1a debe
00000350: 43a8 303e b96b b23d 8d74 28bf 1b9c 02be
00000360: f5e9 9abe fcb3 cd3d 1e97 00bd 5cb4 4fbe
00000370: 1082 25be 6474 3abe efd4 543e bbfa 5bbe
00000380: 92d6 4fbe 4839 01be 8091 36be aef1 39bd
00000390: a76f 1bbe 44a1 6b3e d644 bf3d 6384 53bd
000003a0: 040c f3be 5dc7 67bd 1746 3abd 4212 593d
000003b0: 413d 453e 885f e53d f34b f33b 26b5 76be
000003c0: 0ba5 b23e 0054 b73e 49cd 7e3d 7c8c b7be
000003d0: bbbe fdbe 20ae 5d3e 4298 b53d 7f1d 75bd
000003e0: 10a4 2cbf 2201 aa3c ca8b 7d3e 67c2 aa3e
000003f0: a7e6 163e 5863 f73e 08e3 d23d 2c87 70bd

gru.weight_hh_l1 f4 [120, 40]
-0.23169155 0.1887655 -0.25001732 0.119910635 -0.12362469 -0.112936124 -0.012712899 -0.5851787
-0.0046136053 0.16117878 -0.19484626 -0.21475373 0.23657629 0.17977439 0.07077749 -0.24207182
0.02832383 0.25568372 0.15764225 0.26200283 0.29157484 -0.046984546 0.18765807 0.115393616
-0.0011588964 0.24550052 -0.3264788 -0.15947397 0.1004394 0.03592979 0.51513755 0.071692705
0.2451537 0.03548176 0.14710225 -0.09592366 0.013171365 0.014637317 0.20041116 -0.23377681
0.17824827 0.20029594 -0.20188999 -0.015368379 -0.108704925 -0.0058398284 -0.1601915 0.11493353
0.004451914 0.5975437 0.19583985 -0.11058238 -0.039158747 0.23394817 0.20166735 0.030907413
0.040493175 0.32427242 0.08594299 -0.113257885 0.08133544 -0.07905538 -0.15701218 -0.2130724
0.13807724 0.026476484 0.018145368 0.12137186 -0.11100866 0.34411845 -0.25577894 -0.52349323
-0.01511234 0.057127237 0.057578485 -0.05555467 -0.045877285 -0.3361843 -0.28423166 -0.012154819
-0.082364045 0.04066611 0.20723912 0.7077124 0.41220418 0.05887387 0.20984754 -0.079409294
-0.30249768 0.43320495 0.34961265 -0.11477336 -0.043964013 -0.19310814 -0.017397823 0.6085393
-0.16129512 -0.003090067 -0.3395991 -0.49096698 0.5092097 -0.23944907 -0.17129287 -0.5376724
0.023519712 -0.29011664 -0.18530507 0.0026311504 -0.20270866 0.008578568 0.05489328 -0.14730413
0.13647376 0.32784492 -0.19918111 0.10238298 -0.38839278 0.33431506 -0.024423085 -0.24385025
0.092475325 0.06434765 -0.0265059 -0.4697208 -0.11556785 -0.10766377 0.063110694 0.35569063
0.13593523 0.09920693 -0.0072240112 0.32865676 0.24645594 0.19820784 0.038321283 -0.27999106
0.43604693 0.10728799 0.13387267 -0.11360291 0.18097724 -0.34623948 0.26697758 -0.11030209
0.04991194 -0.09365247 0.16904949 -0.008092293 -0.25748128 0.04749958 -0.23788205 0.030973334
-0.89583915 -0.21931303 -0.0141760595 -0.3204427 -0.8312207 0.21799208 0.052711185 0.5312596
0.10426316 0.15041967 0.017057715 0.15674789 -0.07505538 0.2887057 -0.122312576 0.0717953
-0.08104166 0.5063042 -0.531603 -0.08956483 -0.38326618 -0.03960532 0.033155892 0.13695104
0.026977893 0.15530522 -0.09347995 0.31706336 -0.2620605 0.28598446 -0.3223579 0.43575495
0.07767049 0.24193217 -0.058704305 -0.041498933 -0.018395683 0.35500652 -0.060194716 -0.16264972
0.2037828 0.12659602 0.11599643 -0.16587669 0.24726442 0.37984046 -0.56178343 0.11506293
-0.46731296 0.14279084 0.29990214 -0.120371625 0.11980186 0.1495541 -0.12308496 -0.32783708
-0.42269576 -0.077428445 0.11510878 -0.03013053 0.044972207 -0.28437716 -0.072599284 0.059146013
-0.10910301 0.120521106 -0.19007862 -0.153888 -0.20452952 -0.2501495 0.025778355 0.18322094
0.019903827 -0.80100316 -0.45029634 -0.0068818764 0.34534395 -0.12455594 0.21354493 -0.13247532
0.36013877 0.20018019 -0.0061961836 0.24508059 0.4138329 0.57307 -0.116910376 -0.2054492
-0.36482042 0.6355148 0.08009645 0.39555836 -0.107811436 0.07436378 -0.6121497 -0.22677162
-0.52374685 0.042458467 0.31768823 -0.49990577 0.06960944 0.12801467 0.09772556 0.13495898
00000000: 8d40 6dbe be4b 413e 4502 80be b593 f53d
00000010: f12e fdbd 0e4b e7bd c349 50bc 45ce 15bf
00000020: ba2d 97bb 0d0c 253e c785 47be 67e8 5bbe
00000030: 0e41 723e c716 383e caf3 903d ade1 77be
00000040: 6007 e83c fae8 823e f86c 213e 3c25 863e
00000050: 4c49 953e de72 40bd 7029 403e 7d53 ec3d
00000060: 1ce6 97ba 7d64 7b3e 3b28 a7be 254d 23be
00000070: 2cb3 cd3d 1e2b 133d 0ee0 033f a0d3 923d
00000080: 9209 7b3e 5255 113d f9a1 163e a073 c4bd
00000090: b5cc 573c 5bd1 6f3c 9538 4d3e 3063 6fbe
000000a0: b786 363e 611a 4d3e 40bc 4ebe a7cb 7bbc
000000b0: b0a0 debd 085c bfbb 3e09 24be 4562 eb3d
000000c0: 5de1 913b a0f8 183f 3e8a 483e 0479 e2bd
000000d0: ec64 20bd 1c90 6f3e e381 4e3e 8b31 fd3c
000000e0: 2cdc 253d 0907 a63e e102 b03d c0f3 e7bd
000000f0: 3293 a63d c9e7 a1bd cdc7 20be a72f 5abe
00000100: 1f64 0d3e 36e5 d83c 98a5 943c cf91 f83d
00000110: 8258 e3bd 4b30 b03e 75f5 82be a703 06bf
00000120: c099 77bc 40fe 693d 6bd7 6b3d 4b8d 63bd
00000130: d2e9 3bbd 5920 acbe d086 91be 0225 47bc
00000140: 7bae a8bd 8291 263d 7e36 543e a42c 353f
00000150: 6d0c d33e ba25 713d 46e2 563e 57a1 a2bd
00000160: fae0 9abe 0acd dd3e 6e00 b33e 4c0e ebbd
00000170: 9c13 34bd 24be 45be e185 8ebc 3bc9 1b3f
00000180: 8c2a 25be b982 4abb efdf adbe 0660 fbbe
00000190: 915b 023f 2332 75be 6667 2fbe e6a4 09bf
000001a0: 69ac c03c 2b8a 94be 9dc0 3dbe 616f 2c3b
000001b0: dc92 4fbe 1f8d 0c3c c7d7 603d e5d6 16be
000001c0: c7bf 0b3e 4adb a73e 22f6 4bbe 2bae d13d
000001d0: 6bdb c6be 582b ab3e ec12 c8bc e1b3 79be
000001e0: b463 bd3d b3c8 833d e722 d9bc 3f7f f0be
000001f0: d6ae ecbd d37e dcbd 2e40 813d 151d b63e
00000200: 9b32 0b3e 012d cb3d 66b7 ecbb b345 a83e
00000210: f25e 7c3e fff6 4a3e c7f6 1c3d fd5a 8fbe
00000220: 8b41 df3e ceb9 db3d eb15 093e a4a8 e8bd
00000230: 1952 393e 4d46 b1be 49b1 883e 10e6 e1bd
00000240: 7670 4c3d decc bfbd 4f1b 2d3e 8995 04bc
00000250: 96d4 83be eb8e 423d 5a97 73be cabb fd3c
00000260: b755 65bf 9893 60be b442 68bc 1111 a4be
00000270: e1ca 54bf 5139 5f3e afe7 573d a100 083f
00000280: ec87 d53d 9d07 1a3e 9fbc 8b3c 8582 203e
00000290: a3b6 99bd 3cd1 933e 047f fabd 6a09 933d
000002a0: 2bf9 a5bd 279d 013f 2217 08bf c46d b7bd
000002b0: 773b c4be 3039 22bd 79ce 073d e53c 0c3e
000002c0: be00 dd3c 5508 1f3e 6b72 bfbd 2156 a23e
000002d0: cb2c 86be 8e6c 923e 180c a5be 461b df3e
000002e0: b511 9f3d 11bd 773e ed73 70bd c9fa 29bd
000002f0: 8bb2 96bc 6ac3 b53e bc8e 76bd a68d 26be
00000300: 70ac 503e 63a2 013e 898f ed3d 94db 29be
00000310: e232 7d3e 737a c23e 0ad1 0fbf 1da6 eb3d
00000320: a543 efbe c337 123e c68c 993e 6685 f6bd
00000330: ad5a f53d b624 193e f813 fcbd 43da a7be
00000340: 946b d8be ce92 9ebd 27be eb3d 4dd4 f6bc
00000350: c734 383d e299 91be efae 94bd 1743 723d
00000360: 6671 dfbd c5d3 f63d f8a3 42be d194 1dbe
00000370: 3070 51be 9813 80be 212d d33c 459e 3b3e
00000380: 5a0d a33c 8b0e 4dbf 3e8d e6be 5d81 e1bb
00000390: ecd0 b03e 2f17 ffbd 86ab 5a3e 9ca7 07be
000003a0: 1c64 b83e 09fc 4c3e 5b09 cbbb 68f6 7a3e
000003b0: e8e1 d33e b7b4 123f b56e efbd 4661 52be
000003c0: bec9 babe 19b1 223f 9c09 a43d a086 ca3e
000003d0: 3ecc dcbd 0a4c 983d d8b5 1cbf d236 68be
000003e0: 4614 06bf eee8 2d3d 08a8 a23e a6f3 ffbe
000003f0: 658f 8e3d 4716 033e 5724 c83d b032 0a3e

gru.bias_ih_l1 f4 [120]
-0.12689213 0.22265236 0.047786906 0.12584876 -0.18249182 0.0025537559 -0.092930414 -0.10525478
0.022351027 -0.02177628 0.032201067 -0.06192679 0.021007134 -0.06735143 -0.04122548 -0.0060100784
-0.022861376 -0.10657827 -0.04433455 0.051341396 0.03128407 -0.11324307 0.62191147 -0.124868564
-0.066658616 0.33510873 -0.13246515 0.12791137 -0.0822398 -0.038504586 -0.07338319 0.100486174
0.011206511 -0.050900985 -0.16371983 -0.0913497 0.04460366 0.3321471 0.069138765 -0.07447219
0.061297808 -0.5607183 0.1687074 -0.03668307 -1.1044978 -0.29828703 0.17610435 -0.3147984
-0.25160235 -0.43870288 -0.9099353 -0.3584869 -0.9400918 0.15278357 -0.34903535 0.22065102
0.2639351 -0.62700135 0.17859133 -0.44179878 -0.38925323 -0.1906903 0.15794434 0.21225081
-0.46318924 -0.06442075 0.019478101 -0.42541322 0.28249454 -0.14011632 0.117897354 0.025987787
-0.17710355 0.13058764 -0.4788607 -0.25846145 0.12503281 -0.12153436 -0.44825912 -0.14201473
0.119809635 -0.14383852 -0.2518341 -0.167119 -0.034840774 0.06564306 -0.2110189 0.12953517
-0.2010346 0.07523509 0.18157762 -0.05234404 -0.031674553 0.11988602 -0.13972381 0.071190454
-0.1965871 0.1446181 0.10063653 0.07511932 0.19595285 -0.084323645 0.019953137 -0.17266215
-0.1816024 -0.010426418 0.06481793 0.1428637 -0.15370609 -0.03744311 -0.1638373 -0.061598703
-0.096686214 -0.04642342 0.21029022 -0.15297927 0.06489974 -0.043053463 0.13468178 0.2731155
00000000: 03f0 01be fbfe 633e 34bc 433d 7fde 003e
00000010: 23df 3abe ea5c 273b 4d52 bebd d18f d7bd
00000020: 8019 b73c 2b64 b2bc 44e5 033d f2a6 7dbd
00000030: 2717 ac3c 8cef 89bd 0ddc 28bd 31f0 c4bb
00000040: c847 bbbc b545 dabd 2598 35bd 5b4b 523d
00000050: ba23 003d fceb e7bd 9735 1f3f 17bb ffbd
00000060: 5084 88bd 5f93 ab3e f2a4 07be 33fb 023e
00000070: 576d a8bd fcb6 1dbd ed49 96bd b2cb cd3d
00000080: 849b 373c 8d7d 50bd 2ca6 27be 8d15 bbbd
00000090: 54b2 363d 2f0f aa3e a098 8d3d e084 98bd
000000a0: 6913 7b3d 3c8b 0fbf a2c1 2c3e fd40 16bd
000000b0: 2f60 8dbf 14b9 98be b354 343e 422d a1be
000000c0: 06d2 80be aa9d e0be 85f1 68bf 988b b7be
000000d0: dba9 70bf 4c73 1c3e c3b4 b2be 57f2 613e
000000e0: 8022 873e 2983 20bf a5e0 363e 7333 e2be
000000f0: 334c c7be 5144 43be 29bc 213e 4758 593e
00000100: 2427 edbe 07ef 83bd 8a90 9f3c c3cf d9be
00000110: 20a3 903e a77a 0fbe 2b74 f13d 57e4 d43c
00000120: a25a 35be c4b8 053e 3b2d f5be 0f55 84be
00000130: 9a08 003e 02e7 f8bd 3882 e5be 4f6c 11be
00000140: c15e f53d 684a 13be 66f0 80be 3e21 2bbe
00000150: 33b5 0ebd de6f 863d 5715 58be dea4 043e
00000160: 04dc 4dbe db14 9a3d 7cef 393e b466 56bd
00000170: 2dbd 01bd cd86 f53d c213 0fbe 4dcc 913d
00000180: 214e 49be c416 143e 861a ce3d 28d8 993d
00000190: dda7 483e e0b1 acbd c374 a33c 59ce 30be
000001a0: fbf5 39be 91d3 2abc 43bf 843d dd4a 123e
000001b0: 2165 1dbe f25d 19bd f7c4 27be ec4e 7cbd
000001c0: 6c03 c6bd 7c26 3ebd 5256 573e 99a6 1cbe
000001d0: 28ea 843d d458 30bd 05ea 093e cbd5 8b3e

gru.bias_hh_l1 f4 [120]
-0.0012665264 0.17966025 -0.0030582126 0.01908186 -0.1508445 -0.13004534 -0.12710534 -0.20540518
0.03575387 -0.026756624 0.17896132 -0.00953574 0.02492412 -0.011553507 -0.19819006 0.050589643
0.117326036 0.1766534 -0.10141368 0.0153360125 0.016241997 -0.068192855 0.54713535 -0.078013025
-0.023825612 0.5553598 -0.04719347 0.16567813 0.16868274 0.20995276 0.10277262 0.26370263
0.19728667 0.0055265483 -0.032995906 0.044898212 -0.1379155 0.3859781 0.12203788 -0.20936322
0.05425922 -0.69882303 -0.0020123299 -0.023591915 -1.0653864 -0.007875615 0.12602936 -0.40202487
-0.20083654 -0.5098061 -1.0582815 -0.15034862 -0.99778724 0.12950085 -0.5320958 0.1474188
0.017718416 -0.5469713 -0.013541783 -0.2459024 -0.55242264 -0.04692392 0.06802784 0.118273556
-0.35149306 0.1062726 -0.021772517 -0.16872764 0.3728562 -0.24904597 0.07970167 -0.034426067
0.052629355 -0.05363155 -0.6477928 -0.13775562 0.109004706 0.077348635 -0.2969225 -0.09247894
0.07269058 -0.05735906 -0.20962498 -0.019527994 0.04329581 0.028905464 0.0056186793 0.28506154
-0.17060044 -0.024038045 0.40633577 0.19269985 -0.0063271006 0.06499283 -0.02705974 0.038949084
0.2077366 0.022646448 -0.121001475 0.108119026 0.04592755 0.10610994 0.061167702 -0.19157736
0.21866493 0.15068085 0.104387 0.08820788 -0.21296689 0.29541698 0.093860894 -0.40792167
0.06928514 0.042032983 0.2576935 -0.2103233 -0.24401228 -0.35475412 -0.077584386 0.12666854
00000000: 9301 a6ba dbf8 373e 4b6c 48bb 9051 9c3c
00000010: fb76 1abe 9b2a 05be e727 02be bc55 52be
00000020: a672 123d b530 dbbc a341 373e cb3b 1cbc
00000030: ab2d cc3c ec4a 3dbc 56f2 4abe 1637 4f3d
00000040: a248 f03d a1e4 343e fab1 cfbd e643 7b3c
00000050: f00d 853c b2a8 8bbd 1011 0c3f 4bc5 9fbd
00000060: ee2d c3bc 0f2c 0e3f f14d 41bd 87a7 293e
00000070: 2bbb 2c3e dbfd 563e 747a d23d 0804 873e
00000080: 8405 4a3e 0c18 b53b b726 07bd 30e7 373d
00000090: b939 0dbe ec9e c53e ffee f93d 5063 56be
000000a0: ea3e 5e3d 11e6 32bf 4be1 03bb d543 c1bc
000000b0: 955e 88bf b908 01bc d70d 013e 34d6 cdbe
000000c0: 18a8 4dbe a782 02bf c575 87bf fdf4 19be
000000d0: fc6e 7fbf df9b 043e 6e37 08bf f4f4 163e
000000e0: 3626 913c 5006 0cbf 5bde 5dbc d7cd 7bbe
000000f0: 926b 0dbf 4c33 40bd 2e52 8b3d 6839 f23d
00000100: e6f6 b3be 73a5 d93d 475c b2bc f0c6 2cbe
00000110: 02e7 be3e e805 7fbe a13a a33d 5902 0dbd
00000120: e191 573d c2ac 5bbd c0d5 25bf cf0f 0dbe
00000130: dc3d df3d f668 9e3d 3a06 98be 9965 bdbd
00000140: ccde 943d 55f1 6abd eea7 56be 2cf9 9fbc
00000150: f356 313d 27cb ec3c e61c b83b 96f3 913e
00000160: e2b1 2ebe 6feb c4bc 3e0b d03e 1c53 453e
00000170: 9153 cfbb f61a 853d 63ac ddbc 1389 1f3d
00000180: e7b8 543e 0b85 b93c 9fcf f7bd 826d dd3d
00000190: 871e 3c3d 2b50 d93d fc8a 7a3d db2c 44be
000001a0: b3e9 5f3e 154c 1a3e dac8 d53d 55a6 b43d
000001b0: fe13 5abe e540 973e 243a c03d 1cdb d0be
000001c0: 5ee5 8d3d c72a 2c3d 67f0 833e fe5e 57be
000001d0: 5bde 79be 55a2 b5be 90e4 9ebd 66b5 013e

gru.weight_ih_l2 f4 [120, 40]
0.057371445 0.1046436 -0.22990316 0.43531355 -0.12485311 0.51869375 0.060712736 0.023613593
0.49662927 -0.32549766 -0.15403736 -0.04964842 -0.14554626 0.10500253 0.070255816 0.13515967
0.50488997 -0.052772682 -0.3251125 -0.0012843466 -0.3189888 0.34602746 -0.021176396 0.032149207
-0.09804244 0.3121412 0.03778976 0.035781886 0.34733224 0.40767133 -0.15162116 0.10980984
0.16975522 0.2968427 -0.033548743 -0.24045227 0.08602333 0.23062523 0.5605041 -0.05634987
0.4440731 0.109172024 -0.21821019 0.44881517 0.72558844 0.096446924 0.11299741 0.31290454
-0.36166224 -0.11435167 0.43699017 0.36711082 -0.22050093 0.15063268 0.00079715566 0.10159069
-0.11443392 -0.13456605 -0.12251381 0.029184086 -0.17630003 -0.26992828 -0.026492244 0.29481697
-0.08814191 -0.29567507 0.16546361 0.742153 -0.12324621 -0.113987096 -0.5782499 0.10356366
0.08480578 0.20432903 0.0069076694 -0.23322321 -0.90851146 0.2922756 0.19348408 0.46701062
-0.085988306 0.14123976 0.13904406 0.41758096 -0.43374732 0.14350367 0.2636026 -0.31310627
0.23466235 -0.049099136 0.08760246 -0.31631953 0.34961227 0.10834517 0.09943883 0.175638
0.10150328 -0.32076302 -0.14686258 0.15068059 0.109658755 -0.034218483 -0.108947255 0.07978641
-0.046113145 0.100680076 0.04821581 -0.077049114 0.11674945 0.14213344 0.772344 -0.0756289
0.33261037 0.16670588 -0.5582471 0.09713705 0.021096053 -0.12415667 0.023444407 -0.5635385
0.22767137 0.21540283 0.080264345 -0.38870585 -0.10285786 0.5775953 -0.017485844 0.10317786
0.2695422 -0.8301345 0.013306069 0.25421277 -0.10747939 -0.19225882 0.62165505 1.1276957
0.0056293868 -0.34842747 -0.023993963 -0.77226627 0.27958667 0.14140755 -0.19223651 -0.38294473
-0.06448004 -0.09803691 -0.3562678 0.17935975 -0.39906248 -0.23811796 -0.1432965 -0.41502798
0.20102623 0.59381086 -0.12490767 -0.044996906 0.3131262 0.7006581 -0.4777462 0.1533978
0.11233614 -0.115334906 0.25668168 -0.37096843 0.031859767 0.41079456 0.26862428 0.13187522
0.11844867 -0.0998797 0.26551813 0.015710972 0.4905593 0.08933073 -0.22219753 -0.28514105
0.10583329 0.101223834 -0.44885686 0.38926595 0.1065225 0.07845192 -0.20652507 -0.0072217206
0.5099938 -0.22507557 -0.09795348 -0.37574247 0.046575993 0.0005829391 0.28312448 -0.09781252
-0.29005536 -0.12709984 -0.5391022 -0.02588993 -0.46910384 0.25181946 0.08054179 -0.113510005
-0.019750848 0.061049297 0.06256887 0.5522771 0.7297628 -0.21386676 0.22426252 -0.42913717
-0.3086368 -0.19787212 0.9432082 -0.005666872 -0.23618597 -0.2188067 -0.06654816 0.9475077
-0.31048408 0.03430153 -0.5210756 -0.03829967 -1.0414536 -0.5089693 -0.47959113 0.14088164
0.11811371 0.028339213 -0.48030174 0.61745346 0.13342394 -0.07637612 -0.07274474 -0.30490088
-0.3880804 -0.09344687 -0.61514795 -0.08493735 0.19582757 1.4154133 -0.2413968 -0.06531405
0.6200653 0.0029865203 -0.65720606 -0.17762321 0.56071866 -0.04123491 -0.15527537 -0.24205609
0.20510496 -0.3557497 -0.026410948 -0.11504125 -0.23285872 0.4738092 -0.1779485 -0.1610355
00000000: 52fe 6a3d 624f d63d bc6b 6bbe 6be1 de3e
00000010: fdb2 ffbd 1dc9 043f ebad 783d 4b71 c13c
00000020: 3146 fe3e a1a7 a6be f8bb 1dbe 245c 4bbd
00000030: 140a 15be 910b d73d 48e2 8f3d 4c67 0a3e
00000040: 7840 013f 2b28 58bd 2575 a6be 8557 a8ba
00000050: 8052 a3be 832a b13e 1f7a adbc e3ae 033d
00000060: 7aca c8bd f9d0 9f3e 6fc9 1a3d 0790 123d
00000070: 88d5 b13e 4cba d03e 9442 1bbe fbe3 e03d
00000080: 50d4 2d3e c4fb 973e 686a 09bd 1f39 76be
00000090: 002d b03d 0529 6c3e 327d 0f3f 1fcf 66bd
000000a0: 8d5d e33e 9595 df3d 7e72 5fbe 1acb e53e
000000b0: 2ac0 393f f785 c53d 306b e73d 0635 a03e
000000c0: cb2b b9be 3531 eabd 2dbd df3e f3f5 bb3e
000000d0: ffca 61be 743f 1a3e 36f8 503a c80e d03d
000000e0: 555c eabd afcb 09be 85e8 fabd 7713 ef3c
000000f0: ff87 34be 0a34 8abe 4306 d9bc 40f2 963e
00000100: bf83 b4bd b962 97be 4b6f 293e bdfd 3d3f
00000110: 8268 fcbd 1172 e9bd 2f08 14bf 2f19 d43d
00000120: a7ae ad3d a13b 513e bb59 e23b 11d2 6ebe
00000130: 3594 68bf 26a5 953e b120 463e 041c ef3e
00000140: a31a b0bd 28a1 103e 9161 0e3e 2ccd d53e
00000150: 2114 debe a0f2 123e ecf6 863e 774f a0be
00000160: 544b 703e 2d1c 49bd eb68 b33d a2f4 a1be
00000170: 6100 b33e 13e4 dd3d 96a6 cb3d 73da 333e
00000180: f4e0 cf3d 0d3b a4be 2563 16be 034c 1a3e
00000190: c594 e03d ae28 0cbd bd1f dfbd 0f67 a33d
000001a0: 23e1 3cbd 5b31 ce3d f17d 453d edcb 9dbd
000001b0: 561a ef3d 6e8b 113e 56b8 453f 53e3 9abd
000001c0: e84b aa3e f2b4 2a3e 48e9 0ebf caef c63d
000001d0: a1d1 ac3c da45 febd 7c0e c03c 0f44 10bf
000001e0: af22 693e 8f92 5c3e a261 a43d 7404 c7be
000001f0: 24a7 d2bd 49dd 133f 793e 8fbc ea4e d33d
00000200: 6f01 8a3e b283 54bf b301 5a3c 2d28 823e
00000210: 281e dcbd 7fdf 44be c924 1f3f 5558 903f
00000220: b876 b83b 1665 b2be fd8e c4bc 3eb3 45bf
00000230: fc25 8f3e 24cd 103e a6d9 44be 5511 c4be
00000240: 1c0e 84bd 93c7 c8bd bc68 b6be 15aa 373e
00000250: eb51 ccbe 32d5 73be 51bc 12be 8c7e d4be
00000260: d2d9 4d3e fd03 183f 98cf ffbd ad4e 38bd
00000270: 1452 a03e 545e 333f 269b f4be 5014 1d3e
00000280: 7d10 e63d b534 ecbd c86b 833e 93ef bdbe
00000290: 637f 023d aa53 d23e 1f89 893e 4c0a 073e
000002a0: 3795 f23d ba8d ccbd fef1 873e 4cb4 803c
000002b0: 972a fb3e 08f3 b63d c087 63be 02fe 91be
000002c0: 20bf d83d 714e cf3d 91d0 e5be de4d c73e
000002d0: 7828 da3d 66ab a03d 4f7b 53be 2fa4 ecbb
000002e0: f48e 023f 367a 66be d69b c8bd 5161 c0be
000002f0: 78c6 3e3d 61d0 183a b1f5 903e ee51 c8bd
00000300: 2382 94be 7626 02be 9a02 0abf 1e17 d4bc
00000310: 612e f0be 7bee 803e 18f3 a43d ef77 e8bd
00000320: 88cc a1bc d40e 7a3d 1c24 803d 0862 0d3f
00000330: bcd1 3a3f e3ff 5abe 13a5 653e deb7 dbbe
00000340: a505 9ebe fd9e 4abe 1876 713f 2bb1 b9bb
00000350: bcda 71be dd0e 60be 674a 88bd dd8f 723f
00000360: c5f7 9ebe c37f 0c3d 3665 05bf 1de0 1cbd
00000370: 5a4e 85bf d04b 02bf f88c f5be 4743 103e
00000380: 9ae5 f13d a327 e83c 1cea f5be 6e11 1e3f
00000390: 49a0 083e 156b 9cbd 32fb 94bd f81b 9cbe
000003a0: 79b2 c6be 1361 bfbd 567a 1dbf a2f3 adbd
000003b0: 0687 483e 432c b53f b930 77be 5fc3 85bd
000003c0: 99bc 1e3f 7fb9 433b a83e 28bf dce2 35be
000003d0: 428b 0f3f f0e5 28bd 8200 1fbe 8ddd 77be
000003e0: 0907 523e d324 b6be c65b d8bc bf9a ebbd
000003f0: 8472 6ebe 1f97 f23e 2238 36be 7de6 24be
